…
2025-10-08 07:33:32,340 - INFO - BASELINE CNN FOR CIFAR-10
2025-10-08 07:33:32,340 - INFO - ============================================================
2025-10-08 07:33:32,340 - INFO - Loading CIFAR-10 dataset...
2025-10-08 07:33:32,340 - INFO - Using albumentations for augmentation
2025-10-08 07:33:33,415 - INFO - Training samples: 50000
2025-10-08 07:33:33,415 - INFO - Test samples: 10000
2025-10-08 07:33:33,415 - INFO - Total parameters: 144,166
2025-10-08 07:33:33,416 - INFO - Trainable parameters: 144,166
2025-10-08 07:33:33,416 - INFO - 
Model Architecture:
2025-10-08 07:33:33,416 - INFO - FinalCNN(
  (conv1): Conv2d(3, 12, kernel_size=(3, 3), stride=(1, 1), padding=(1, 1), bias=False)
  (bn1): BatchNorm2d(12, eps=1e-05, momentum=0.1, affine=True, track_running_stats=True)
  (block1): BasicBlock(
    (conv1): Conv2d(12, 24, kernel_size=(3, 3), stride=(1, 1), padding=(1, 1), bias=False)
    (bn1): BatchNorm2d(24, eps=1e-05, momentum=0.1, affine=True, track_running_stats=True)
    (do1): Dropout(p=0.05, inplace=False)
    (conv2): Conv2d(24, 24, kernel_size=(3, 3), stride=(1, 1), padding=(1, 1), groups=24, bias=False)
    (bn2): BatchNorm2d(24, eps=1e-05, momentum=0.1, affine=True, track_running_stats=True)
    (do2): Dropout(p=0.05, inplace=False)
    (conv3): Conv2d(24, 24, kernel_size=(1, 1), stride=(1, 1), bias=False)
    (bn3): BatchNorm2d(24, eps=1e-05, momentum=0.1, affine=True, track_running_stats=True)
    (do3): Dropout(p=0.05, inplace=False)
    (conv4): Conv2d(24, 24, kernel_size=(3, 3), stride=(1, 1), padding=(1, 1), bias=False)
    (bn4): BatchNorm2d(24, eps=1e-05, momentum=0.1, affine=True, track_running_stats=True)
  )
  (block2): BasicBlock(
    (conv1): Conv2d(24, 24, kernel_size=(3, 3), stride=(1, 1), padding=(1, 1), bias=False)
    (bn1): BatchNorm2d(24, eps=1e-05, momentum=0.1, affine=True, track_running_stats=True)
    (do1): Dropout(p=0.05, inplace=False)
    (conv2): Conv2d(24, 24, kernel_size=(3, 3), stride=(1, 1), padding=(1, 1), groups=24, bias=False)
    (bn2): BatchNorm2d(24, eps=1e-05, momentum=0.1, affine=True, track_running_stats=True)
    (do2): Dropout(p=0.05, inplace=False)
    (conv3): Conv2d(24, 24, kernel_size=(1, 1), stride=(1, 1), bias=False)
    (bn3): BatchNorm2d(24, eps=1e-05, momentum=0.1, affine=True, track_running_stats=True)
    (do3): Dropout(p=0.05, inplace=False)
    (conv4): Conv2d(24, 24, kernel_size=(3, 3), stride=(2, 2), padding=(1, 1), bias=False)
    (bn4): BatchNorm2d(24, eps=1e-05, momentum=0.1, affine=True, track_running_stats=True)
  )
  (block3): BasicBlock(
    (conv1): Conv2d(24, 36, kernel_size=(3, 3), stride=(1, 1), padding=(1, 1), bias=False)
    (bn1): BatchNorm2d(36, eps=1e-05, momentum=0.1, affine=True, track_running_stats=True)
    (do1): Dropout(p=0.05, inplace=False)
    (conv2): Conv2d(36, 36, kernel_size=(3, 3), stride=(1, 1), padding=(1, 1), groups=36, bias=False)
    (bn2): BatchNorm2d(36, eps=1e-05, momentum=0.1, affine=True, track_running_stats=True)
    (do2): Dropout(p=0.05, inplace=False)
    (conv3): Conv2d(36, 36, kernel_size=(1, 1), stride=(1, 1), bias=False)
    (bn3): BatchNorm2d(36, eps=1e-05, momentum=0.1, affine=True, track_running_stats=True)
    (do3): Dropout(p=0.05, inplace=False)
    (conv4): Conv2d(36, 36, kernel_size=(3, 3), stride=(1, 1), padding=(1, 1), bias=False)
    (bn4): BatchNorm2d(36, eps=1e-05, momentum=0.1, affine=True, track_running_stats=True)
  )
  (block4): BasicBlock(
    (conv1): Conv2d(36, 36, kernel_size=(3, 3), stride=(1, 1), padding=(1, 1), bias=False)
    (bn1): BatchNorm2d(36, eps=1e-05, momentum=0.1, affine=True, track_running_stats=True)
    (do1): Dropout(p=0.05, inplace=False)
    (conv2): Conv2d(36, 36, kernel_size=(3, 3), stride=(1, 1), padding=(1, 1), groups=36, bias=False)
    (bn2): BatchNorm2d(36, eps=1e-05, momentum=0.1, affine=True, track_running_stats=True)
    (do2): Dropout(p=0.05, inplace=False)
    (conv3): Conv2d(36, 36, kernel_size=(1, 1), stride=(1, 1), bias=False)
    (bn3): BatchNorm2d(36, eps=1e-05, momentum=0.1, affine=True, track_running_stats=True)
    (do3): Dropout(p=0.05, inplace=False)
    (conv4): Conv2d(36, 36, kernel_size=(3, 3), stride=(2, 2), padding=(1, 1), bias=False)
    (bn4): BatchNorm2d(36, eps=1e-05, momentum=0.1, affine=True, track_running_stats=True)
  )
  (block5): BasicBlock(
    (conv1): Conv2d(36, 72, kernel_size=(3, 3), stride=(1, 1), padding=(1, 1), bias=False)
    (bn1): BatchNorm2d(72, eps=1e-05, momentum=0.1, affine=True, track_running_stats=True)
    (do1): Dropout(p=0.05, inplace=False)
    (conv2): Conv2d(72, 72, kernel_size=(3, 3), stride=(1, 1), padding=(1, 1), groups=72, bias=False)
    (bn2): BatchNorm2d(72, eps=1e-05, momentum=0.1, affine=True, track_running_stats=True)
    (do2): Dropout(p=0.05, inplace=False)
    (conv3): Conv2d(72, 72, kernel_size=(1, 1), stride=(1, 1), bias=False)
    (bn3): BatchNorm2d(72, eps=1e-05, momentum=0.1, affine=True, track_running_stats=True)
    (do3): Dropout(p=0.05, inplace=False)
    (conv4): Conv2d(72, 72, kernel_size=(3, 3), stride=(1, 1), padding=(1, 1), bias=False)
    (bn4): BatchNorm2d(72, eps=1e-05, momentum=0.1, affine=True, track_running_stats=True)
  )
  (global_avg_pool): AdaptiveAvgPool2d(output_size=(1, 1))
  (fc): Linear(in_features=72, out_features=10, bias=True)
)
2025-10-08 07:33:33,416 - INFO - Approximate Receptive Field: 63x63
2025-10-08 07:33:33,416 - INFO - Using learning rate 0.05
2025-10-08 07:33:33,416 - INFO - 
Optimizer: Cosine (lr=0.05)
2025-10-08 07:33:33,416 - INFO - Using cosine scheduler
2025-10-08 07:33:33,416 - INFO - Loss function: CrossEntropyLoss
2025-10-08 07:33:33,416 - INFO - Training epochs: 30
…
