…
2025-09-27 09:07:05,763 - INFO - Test samples: 10000
2025-09-27 09:07:05,763 - INFO - 
============================================================
2025-09-27 09:07:05,763 - INFO - MODEL ARCHITECTURE SUMMARY
2025-09-27 09:07:05,763 - INFO - ============================================================
2025-09-27 09:07:05,763 - INFO - Model parameters: 18,684
2025-09-27 09:07:05,763 - INFO - Dropout rates: (0.05, 0.05, 0.05)
2025-09-27 09:07:05,763 - INFO - 
Detailed Model Summary:
2025-09-27 09:07:05,765 - INFO - torchsummary not available, showing model structure:
2025-09-27 09:07:05,765 - INFO - MNISTModelFinal(
  (conv1): Sequential(
    (0): Conv2d(1, 12, kernel_size=(5, 5), stride=(1, 1), bias=False)
    (1): BatchNorm2d(12, eps=1e-05, momentum=0.1, affine=True, track_running_stats=True)
    (2): ReLU(inplace=True)
    (3): Conv2d(12, 12, kernel_size=(5, 5), stride=(1, 1), bias=False)
    (4): BatchNorm2d(12, eps=1e-05, momentum=0.1, affine=True, track_running_stats=True)
    (5): ReLU(inplace=True)
    (6): MaxPool2d(kernel_size=2, stride=2, padding=0, dilation=1, ceil_mode=False)
    (7): Conv2d(12, 12, kernel_size=(5, 5), stride=(1, 1), bias=False)
    (8): BatchNorm2d(12, eps=1e-05, momentum=0.1, affine=True, track_running_stats=True)
    (9): ReLU(inplace=True)
    (10): Conv2d(12, 12, kernel_size=(5, 5), stride=(1, 1), bias=False)
    (11): BatchNorm2d(12, eps=1e-05, momentum=0.1, affine=True, track_running_stats=True)
    (12): ReLU(inplace=True)
    (13): MaxPool2d(kernel_size=2, stride=2, padding=0, dilation=1, ceil_mode=False)
    (14): Conv2d(12, 24, kernel_size=(5, 5), stride=(1, 1), bias=False)
    (15): BatchNorm2d(24, eps=1e-05, momentum=0.1, affine=True, track_running_stats=True)
    (16): ReLU(inplace=True)
    (17): AdaptiveAvgPool2d(output_size=1)
    (18): Conv2d(24, 10, kernel_size=(1, 1), stride=(1, 1), bias=False)
  )
)
2025-09-27 09:07:05,765 - INFO - 
============================================================
2025-09-27 09:07:05,765 - INFO - TRAINING STARTED
2025-09-27 09:07:05,766 - INFO - ============================================================
2025-09-27 09:07:05,766 - INFO - 
Epoch [1/15]
2025-09-27 09:07:05,766 - INFO - Learning Rate: 0.001000
…
